2b/another_conv_net_DQN/cartpole-dqn.pth (torch, 3295 bytes, 4 tensors)

0.weight f4 [64, 4]
0.090777 0.5321337 0.7968884 0.40900797 -0.4434864 -0.07314992 -0.16985045 0.057003126
0.57050204 1.0791119 1.4382168 0.83864224 0.70249975 1.218904 1.2326907 0.93440545
0.6838802 0.7368543 0.8734313 0.56014824 0.2701317 0.67120194 1.1309851 0.54802305
0.020673048 -0.29452547 -0.08643047 -0.22611794 -0.03150222 -0.25445995 0.21890397 -0.0510178
-0.5640718 -0.5841762 -1.0455577 -0.3715 0.20890431 -0.4332407 -1.1904994 -0.34070906
-0.2400363 0.030958567 0.1862899 -0.14258516 0.27015913 0.39261904 0.19109915 0.2973866
0.29470456 1.0783428 1.4130881 0.8287221 0.25471362 0.047552615 -0.08821431 0.023220444
0.48755002 1.4217707 1.9745871 1.1064898 0.5165709 1.1004804 1.1750852 0.8389181
0.37861347 0.4911481 0.4665069 0.38278902 -0.6902888 -1.1471728 -2.0262985 -0.8891974
0.26829425 1.3371809 1.2160156 1.0468047 0.4237683 1.3429586 1.6041511 1.0387563
-0.541068 -0.25563353 -0.569877 0.041370038 -0.1076731 -0.8231554 -1.2601448 -0.6669102
0.2771521 0.6774116 1.2449561 0.5109207 -0.3483988 -1.3521518 -1.0685756 -1.0582945
-0.1869238 -0.2132548 -0.025875235 -0.100265555 0.24412741 0.17584383 0.8296236 0.140418
-0.3356367 0.69413996 1.1957382 0.635662 0.4348518 0.42919165 0.24438457 0.3768394
-0.36156967 -0.61103886 -1.3137488 -0.46675667 -0.33165133 -1.3280649 -1.9982241 -1.0328715
0.18397652 0.7720852 1.3299398 0.6251472 0.21311104 -0.7315698 -1.2320315 -0.60498303
-0.55154055 -1.0284669 -1.715339 -0.80996674 0.013229771 1.1860492 1.5488192 0.92556894
0.4898179 1.0076876 1.46001 0.7851213 0.21961275 -0.29918516 -0.073816754 -0.18817581
0.2823069 0.5104203 0.7685109 0.38123396 0.54455507 0.8295924 0.65801775 0.64526814
0.03910279 -0.31854114 0.784992 0.6051254 0.10075416 -0.4429292 0.040484827 -0.3546582
-0.043521512 -0.96051186 -0.9887211 -0.6813182 0.34477913 0.06780115 0.19671822 0.06050337
0.030046113 -0.13477215 0.121931404 0.07943674 -0.285822 -0.89344335 -1.396222 -0.71606666
-0.11412063 -0.29329357 -0.1595669 -0.24897584 0.030974597 0.3778993 0.79691964 0.30438957
-0.1282948 0.8733 0.6562241 0.73583037 0.6094972 0.82120556 1.4576726 0.64622176
-0.039545417 0.3343461 0.14565209 0.2720985 0.07356642 -0.34316367 -0.7811214 -0.34489465
-0.09433477 -0.40172157 -0.8744833 -0.5116552 -0.35497326 -0.53048915 -0.63540995 -0.40993094
0.50705916 -0.2937271 0.31808364 -0.38021913 0.44170997 0.061714236 -0.43893504 -0.10957004
0.0062985206 -1.1612091 -1.0178508 -0.9072035 0.5550929 1.0687864 1.7685901 0.8834794
-0.30646947 -0.7850924 -0.9103367 -0.62295175 -0.34316948 -0.5448796 0.23051102 0.7149432
0.027508065 0.76684546 1.1257663 0.62118745 -0.25068343 0.34178382 0.7175219 0.30681226
-0.06067873 -0.14494172 -0.46126026 -0.07498124 -0.11630171 0.19580664 0.20648715 -0.12781261
-0.63831395 -0.27700517 0.42962417 -0.04079074 -0.07466082 1.1725345 1.4992952 0.9221692
00000000: 4be9 b93d ea39 083f e100 4c3f 7e69 d13e
00000010: a610 e3be a0cf 95bd 47ed 2dbe 1c7c 693d
00000020: 6c0c 123f 5720 8a3f 7d17 b83f 42b1 563f
00000030: 06d7 333f 0c05 9c3f cfc8 9d3f 3235 6f3f
00000040: c612 2f3f 7ca2 3c3f 3299 5f3f e065 0f3f
00000050: b44e 8a3e e4d3 2b3f 1fc4 903f 3d4b 0c3f
00000060: 865a a93c 0bcc 96be 7502 b1bd 768b 67be
00000070: 7908 01bd 9348 82be 5d28 603e 0af8 50bd
00000080: 0267 10bf 928c 15bf d6d4 85bf 3f35 bebe
00000090: 03eb 553e bad1 ddbe 4962 98bf 6b71 aebe
000000a0: 13cc 75be d29c fd3c c8c2 3e3e d801 12be
000000b0: 4c52 8a3e 5d05 c93e 7faf 433e 0e43 983e
000000c0: 84e3 963e 2307 8a3f 12e0 b43f 2227 543f
000000d0: d369 823e 88c6 423d b4a9 b4bd cd38 be3c
000000e0: 28a0 f93e 95fc b53f 45bf fc3f 75a1 8d3f
000000f0: fe3d 043f 8bdc 8c3f 3169 963f 56c3 563f
00000100: a0d9 c13e c477 fb3e fed9 ee3e ecfc c33e
00000110: c4b6 30bf 8fd6 92bf e0ae 01c0 71a2 63bf
00000120: dd5d 893e be28 ab3f 66a6 9b3f b2fd 853f
00000130: 29f8 d83e 11e6 ab3f d354 cd3f f7f5 843f
00000140: 6f83 0abf 66e2 82be 76e3 11bf a173 293d
00000150: b783 dcbd 50ba 52bf 6d4c a1bf a0ba 2abf
00000160: e1e6 8d3e d96a 2d3f b95a 9f3f b3cb 023f
00000170: 5461 b2be 4f13 adbf 16c7 88bf 3276 87bf
00000180: f468 3fbe 775f 5abe 4df8 d3bc 0758 cdbd
00000190: 89fc 793e 6810 343e 3662 543f bcc9 0f3e
000001a0: 93d8 abbe 28b3 313f f30d 993f bfba 223f
000001b0: e5a4 de3e 02bf db3e f33f 7a3e 18f1 c03e
000001c0: a91f b9be 0b6d 1cbf ec28 a8bf bbfa eebe
000001d0: 34ce a9be 08fe a9bf cfc5 ffbf 2235 84bf
000001e0: 5764 3c3e 60a7 453f 783b aa3f a609 203f
000001f0: c839 5a3e 2948 3bbf 35b3 9dbf 2be0 1abf
00000200: c331 0dbf cea4 83bf 3a90 dbbf fb59 4fbf
00000210: aec1 583c 76d0 973f b53f c63f 16f2 6c3f
00000220: 69c9 fa3e e8fb 803f 9ce1 ba3f b6fd 483f
00000230: 2ae2 603e cc2e 99be 3d2d 97bd 29b1 40be
00000240: 888a 903e e8aa 023f 21bd 443f 1931 c33e
00000250: f667 0b3f 2b60 543f da73 283f 4b30 253f
00000260: 3f2a 203d d317 a3be 3cf5 483f 80e9 1a3f
00000270: 3258 ce3d 9ec7 e2be 6bd3 253d c295 b5be
00000280: 9d43 32bd 1be4 75bf d31c 7dbf df6a 2ebf
00000290: e486 b03e 54db 8a3d 8070 493e 62d2 773d
000002a0: 4423 f63c b601 0abe 2cb7 f93d bbaf a23d
000002b0: 4357 92be b4b8 64bf 67b7 b2bf 2550 37bf
000002c0: 14b8 e9bd 932a 96be 8165 23be 86f3 7ebe
000002d0: 70be fd3c 047c c13e ed02 4c3f f3d8 9b3e
000002e0: b65f 03be 9790 5f3f 4dfe 273f 615f 3c3f
000002f0: 0208 1c3f 873a 523f 0495 ba3f ca6e 253f
00000300: 60fa 21bd 692f ab3e d225 153e 7f50 8b3e
00000310: fea9 963d 26b3 afbe 92f7 47bf 0896 b0be
00000320: 9732 c1bd 73ae cdbe 23de 5fbf d6fb 02bf
00000330: 0ebf b5be 23ce 07bf 3aaa 22bf 78e2 d1be
00000340: a1ce 013f 6663 96be dcdb a23e 15ac c2be
00000350: cf27 e23e 11c8 7c3d 18bc e0be 4266 e0bd
00000360: d263 ce3b 80a2 94bf ef48 82bf 7d3e 68bf
00000370: 911a 0e3f fecd 883f 2961 e23f b52b 623f
00000380: 91e9 9cbe d1fb 48bf d30b 69bf c479 1fbf
00000390: e9b3 afbe 3b7d 0bbf 150b 6c3e 8406 373f
000003a0: 9858 e13c fc4f 443f 1c19 903f 2406 1f3f
000003b0: 9459 80be 4afe ae3e 84af 373f 7f16 9d3e
000003c0: 438a 78bd 9a6b 14be 4e2a ecbe c48f 99bd
000003d0: 972f eebd 8981 483e 5e71 533e 4fe1 02be
000003e0: 8b68 23bf 9fd3 8dbe b3f7 db3e 3114 27bd
000003f0: c6e7 98bd 9c15 963f e8e8 bf3f 4813 6c3f

0.bias f4 [64]
-1.1028445 -0.47910812 0.7189642 -0.9692694 0.6785271 0.83551437 1.0556647 0.0023748796
0.851198 0.73267347 -0.009325381 -0.78408176 0.7083025 0.73362345 0.8008517 -0.7510063
-0.820025 0.9161803 -0.7642021 -0.9195478 0.27257916 -0.8905084 -0.9047704 -0.8210555
0.4944127 -1.0639303 0.8300716 -0.17868471 0.79399747 0.91884077 -1.0249215 -0.9183692
0.9689452 -0.8007579 0.69210255 -0.5465821 -0.86703485 0.9210558 0.08992783 -0.917518
0.5775882 -0.91357654 -0.18313497 -0.9067594 0.8201249 0.8755664 -0.66343987 0.7387335
0.75741905 0.21120086 0.42984554 0.82369536 -0.12003569 -0.1811149 0.9128216 0.8089298
-0.83596617 0.046745803 0.8606858 0.83563936 -0.60521436 0.2754175 -0.57597816 -0.876889
00000000: 022a 8dbf a94d f5be 0a0e 383f 0a22 78bf
00000010: f4b3 2d3f 45e4 553f 0520 873f dea3 1b3b
00000020: 1de8 593f 7d90 3b3f 7cc9 18bc 95b9 48bf
00000030: 5053 353f bfce 3b3f 9e04 4d3f f341 40bf
00000040: 29ed 51bf cb8a 6a3f c0a2 43bf 7c67 6bbf
00000050: 7f8f 8b3e 5cf8 63bf 089f 67bf b130 52bf
00000060: a923 fd3e de2e 88bf 937f 543f 20f9 36be
00000070: 6b43 4b3f 2639 6b3f a130 83bf 3e1a 6bbf
00000080: cb0c 783f 78fe 4cbf a22d 313f ceec 0bbf
00000090: fff5 5dbf 50ca 6b3f 152c b83d 76e2 6abf
000000a0: d2dc 133f 27e0 69bf bc87 3bbe 6221 68bf
000000b0: b5f3 513f 1f25 603f 32d7 29bf a31d 3d3f
000000c0: 37e6 413f 0a45 583e b714 dc3e b3dd 523f
000000d0: 46d5 f5bd 2f76 39be adae 693f 0616 4f3f
000000e0: e101 56bf 8778 3f3d e855 5c3f 76ec 553f
000000f0: 54ef 1abf 8603 8d3e 4e73 13bf cc7b 60bf

2.weight f4 [2, 64]
-0.45125794 -0.2624489 0.716891 -0.5785846 0.6921803 0.44215143 0.4675359 0.04240291
0.44736594 0.7339985 0.022488035 -0.64924634 0.70808566 0.3219721 0.6667522 -0.83162326
-0.4723799 0.653638 -0.7729253 -0.72477764 0.18183808 -0.5592589 -0.47448853 -0.51233256
0.32005703 -0.5120007 0.5103297 -0.4689782 0.6510619 0.6617767 -0.50578696 -0.55900943
0.5704817 -0.53549606 0.47112036 -0.40663707 -0.5746498 0.52104515 0.055298705 -0.5495044
0.41878057 -0.41456366 -0.22620358 -0.51463073 0.5409191 0.51849335 -0.5663456 0.6623179
0.6678482 0.35919428 0.30231726 0.5858864 0.07581814 0.04440518 0.560991 0.46793416
-0.61827743 0.08298962 0.38832843 0.6292759 -0.4117189 0.15219347 -0.31500235 -0.64574426
-0.5062589 -0.12033071 0.7116733 -0.6574527 0.5643585 0.5440607 0.60793185 0.005918642
0.48154372 0.39372417 -0.053838704 -0.5938689 0.61287886 0.56835926 0.672243 -0.51403284
-0.5145047 0.52737534 -0.55198735 -0.71975523 0.08857087 -0.6580947 -0.5588995 -0.65924877
0.4549594 -0.50962764 0.57004535 0.11892817 0.63738716 0.6635539 -0.58081317 -0.5860216
0.6360048 -0.5927172 0.6212868 -0.124637604 -0.58769166 0.6224472 0.053081077 -0.49154922
0.38915917 -0.5745632 0.06105849 -0.55896115 0.48899183 0.63395756 -0.4838317 0.61868626
0.62173134 0.03395011 0.27215517 0.640432 -0.15069279 -0.22113405 0.64378923 0.66376424
-0.65208465 -0.14079465 0.52269757 0.52589005 -0.30882266 0.067256585 -0.32152486 -0.6536869
00000000: 480b e7be b45f 86be 2b86 373f 1f1e 14bf
00000010: ba32 313f ac61 e23e de60 ef3e acae 2d3d
00000020: 260d e53e 53e7 3b3f d438 b83c 0235 26bf
00000030: 1a45 353f 87d9 a43e 46b0 2a3f 43e5 54bf
00000040: c7db f1be d254 273f 6fde 45bf 078b 39bf
00000050: c333 3a3e 972b 0fbf 29f0 f2be 3a28 03bf
00000060: 84de a33e 7a12 03bf f8a4 023f e91d f0be
00000070: feab 263f 336a 293f 417b 01bf 3e1b 0fbf
00000080: 170b 123f 4516 09bf b036 f13e bc32 d0be
00000090: 401c 13bf 3763 053f e580 623d 52ac 0cbf
000000a0: 686a d63e b041 d4be e9a1 67be d7be 03bf
000000b0: ad79 0a3f fbbb 043f 06fc 10bf aa8d 293f
000000c0: 1af8 2a3f 50e8 b73e 54c9 9a3e a7fc 153f
000000d0: 8a46 9b3d 35e2 353d 1b9d 0f3f 1195 ef3e
000000e0: 6e47 1ebf 76f6 a93d fcd2 c63e 3a18 213f
000000f0: d2cc d2be 9bd8 1b3e fd47 a1be 7f4f 25bf
00000100: 2f9a 01bf f36f f6bd 3930 363f d24e 28bf
00000110: cc79 103f 9047 0b3f 6ca1 1b3f 2bf1 c13b
00000120: e68c f63e 3796 c93e f985 5cbd cb07 18bf
00000130: a1e5 1c3f fe7f 113f 1e18 2c3f a897 03bf
00000140: 94b6 03bf 1202 073f 0b4f 0dbf e141 38bf
00000150: a564 b53d e578 28bf 0a14 0fbf 87c4 28bf
00000160: 70f0 e83e f576 02bf 7eee 113f 9d90 f33d
00000170: ce2b 233f abde 293f 2cb0 14bf 8305 16bf
00000180: 36d1 223f 50bc 17bf a70c 1f3f 0042 ffbd
00000190: f672 16bf b358 1f3f 8b6b 593d 57ac fbbe
000001a0: df3f c73e 9316 13bf 7818 7a3d 1418 0fbf
000001b0: 235d fa3e 0b4b 223f cab8 f7be 3962 1e3f
000001c0: c929 1f3f 450f 0b3d ec57 8b3e 5af3 233f
000001d0: 364f 1abe f770 62be 5fcf 243f 74ec 293f
000001e0: 05ef 26bf 792c 10be 82cf 053f bba0 063f
000001f0: 011e 9ebe d2bd 893d e89e a4be 0658 27bf

2.bias f4 [2]
0.49114296 0.381026
00000000: 1777 fb3e d715 c33e
